{"config": [{"config": {"input_dtype": "float32", "output_shape_type": "raw", "batch_input_shape": [null, 64, 64, 3], "arguments": {}, "output_shape": [64, 64, 3], "function_type": "lambda", "function": ["\u00e3\u0001\u0000\u0000\u0000\u0000\u0000\u0000\u0000\u0001\u0000\u0000\u0000\u0002\u0000\u0000\u0000S\u0000\u0000\u0000s\f\u0000\u0000\u0000|\u0000\u0000d\u0001\u0000\u001bd\u0002\u0000\u0018S)\u0003N\u00e7\u0000\u0000\u0000\u0000\u0000\u00e0_@\u00e7\u0000\u0000\u0000\u0000\u0000\u0000\u00e0?\u00a9\u0000)\u0001\u00da\u0001xr\u0003\u0000\u0000\u0000r\u0003\u0000\u0000\u0000\u00faH/mnt/data/Education/sdc/course/Term1/CarND-BehavioralCloning-P3/model.py\u00da\b<lambda>\u00de\u0000\u0000\u0000s\u0000\u0000\u0000\u0000", null, null], "name": "lambda_1", "trainable": true}, "class_name": "Lambda"}, {"config": {"border_mode": "same", "nb_col": 1, "bias": true, "name": "color_conv", "trainable": true, "nb_row": 1, "W_regularizer": null, "b_constraint": null, "activation": "linear", "W_constraint": null, "init": "glorot_uniform", "subsample": [1, 1], "b_regularizer": null, "activity_regularizer": null, "nb_filter": 3, "dim_ordering": "tf"}, "class_name": "Convolution2D"}, {"config": {"border_mode": "same", "nb_col": 3, "bias": true, "name": "block1_conv1", "trainable": false, "nb_row": 3, "W_regularizer": null, "b_constraint": null, "activation": "elu", "W_constraint": null, "init": "glorot_uniform", "subsample": [1, 1], "b_regularizer": null, "activity_regularizer": null, "nb_filter": 64, "dim_ordering": "tf"}, "class_name": "Convolution2D"}, {"config": {"border_mode": "same", "nb_col": 3, "bias": true, "name": "block1_conv2", "trainable": false, "nb_row": 3, "W_regularizer": null, "b_constraint": null, "activation": "elu", "W_constraint": null, "init": "glorot_uniform", "subsample": [1, 1], "b_regularizer": null, "activity_regularizer": null, "nb_filter": 64, "dim_ordering": "tf"}, "class_name": "Convolution2D"}, {"config": {"name": "block1_pool", "trainable": false, "pool_size": [2, 2], "strides": [2, 2], "border_mode": "valid", "dim_ordering": "tf"}, "class_name": "MaxPooling2D"}, {"config": {"border_mode": "same", "nb_col": 3, "bias": true, "name": "block2_conv1", "trainable": false, "nb_row": 3, "W_regularizer": null, "b_constraint": null, "activation": "elu", "W_constraint": null, "init": "glorot_uniform", "subsample": [1, 1], "b_regularizer": null, "activity_regularizer": null, "nb_filter": 128, "dim_ordering": "tf"}, "class_name": "Convolution2D"}, {"config": {"border_mode": "same", "nb_col": 3, "bias": true, "name": "block2_conv2", "trainable": false, "nb_row": 3, "W_regularizer": null, "b_constraint": null, "activation": "elu", "W_constraint": null, "init": "glorot_uniform", "subsample": [1, 1], "b_regularizer": null, "activity_regularizer": null, "nb_filter": 128, "dim_ordering": "tf"}, "class_name": "Convolution2D"}, {"config": {"name": "block2_pool", "trainable": false, "pool_size": [2, 2], "strides": [2, 2], "border_mode": "valid", "dim_ordering": "tf"}, "class_name": "MaxPooling2D"}, {"config": {"border_mode": "same", "nb_col": 3, "bias": true, "name": "block3_conv1", "trainable": false, "nb_row": 3, "W_regularizer": null, "b_constraint": null, "activation": "elu", "W_constraint": null, "init": "glorot_uniform", "subsample": [1, 1], "b_regularizer": null, "activity_regularizer": null, "nb_filter": 256, "dim_ordering": "tf"}, "class_name": "Convolution2D"}, {"config": {"border_mode": "same", "nb_col": 3, "bias": true, "name": "block3_conv2", "trainable": false, "nb_row": 3, "W_regularizer": null, "b_constraint": null, "activation": "elu", "W_constraint": null, "init": "glorot_uniform", "subsample": [1, 1], "b_regularizer": null, "activity_regularizer": null, "nb_filter": 256, "dim_ordering": "tf"}, "class_name": "Convolution2D"}, {"config": {"border_mode": "same", "nb_col": 3, "bias": true, "name": "block3_conv3", "trainable": false, "nb_row": 3, "W_regularizer": null, "b_constraint": null, "activation": "elu", "W_constraint": null, "init": "glorot_uniform", "subsample": [1, 1], "b_regularizer": null, "activity_regularizer": null, "nb_filter": 256, "dim_ordering": "tf"}, "class_name": "Convolution2D"}, {"config": {"name": "block3_pool", "trainable": false, "pool_size": [2, 2], "strides": [2, 2], "border_mode": "valid", "dim_ordering": "tf"}, "class_name": "MaxPooling2D"}, {"config": {"border_mode": "same", "nb_col": 3, "bias": true, "name": "block4_conv1", "trainable": true, "nb_row": 3, "W_regularizer": null, "b_constraint": null, "activation": "elu", "W_constraint": null, "init": "glorot_uniform", "subsample": [1, 1], "b_regularizer": null, "activity_regularizer": null, "nb_filter": 512, "dim_ordering": "tf"}, "class_name": "Convolution2D"}, {"config": {"border_mode": "same", "nb_col": 3, "bias": true, "name": "block4_conv2", "trainable": true, "nb_row": 3, "W_regularizer": null, "b_constraint": null, "activation": "elu", "W_constraint": null, "init": "glorot_uniform", "subsample": [1, 1], "b_regularizer": null, "activity_regularizer": null, "nb_filter": 512, "dim_ordering": "tf"}, "class_name": "Convolution2D"}, {"config": {"border_mode": "same", "nb_col": 3, "bias": true, "name": "block4_conv3", "trainable": true, "nb_row": 3, "W_regularizer": null, "b_constraint": null, "activation": "elu", "W_constraint": null, "init": "glorot_uniform", "subsample": [1, 1], "b_regularizer": null, "activity_regularizer": null, "nb_filter": 512, "dim_ordering": "tf"}, "class_name": "Convolution2D"}, {"config": {"name": "block4_pool", "trainable": true, "pool_size": [2, 2], "strides": [2, 2], "border_mode": "valid", "dim_ordering": "tf"}, "class_name": "MaxPooling2D"}, {"config": {"border_mode": "same", "nb_col": 3, "bias": true, "name": "block5_conv1", "trainable": true, "nb_row": 3, "W_regularizer": null, "b_constraint": null, "activation": "elu", "W_constraint": null, "init": "glorot_uniform", "subsample": [1, 1], "b_regularizer": null, "activity_regularizer": null, "nb_filter": 512, "dim_ordering": "tf"}, "class_name": "Convolution2D"}, {"config": {"border_mode": "same", "nb_col": 3, "bias": true, "name": "block5_conv2", "trainable": true, "nb_row": 3, "W_regularizer": null, "b_constraint": null, "activation": "elu", "W_constraint": null, "init": "glorot_uniform", "subsample": [1, 1], "b_regularizer": null, "activity_regularizer": null, "nb_filter": 512, "dim_ordering": "tf"}, "class_name": "Convolution2D"}, {"config": {"border_mode": "same", "nb_col": 3, "bias": true, "name": "block5_conv3", "trainable": true, "nb_row": 3, "W_regularizer": null, "b_constraint": null, "activation": "elu", "W_constraint": null, "init": "glorot_uniform", "subsample": [1, 1], "b_regularizer": null, "activity_regularizer": null, "nb_filter": 512, "dim_ordering": "tf"}, "class_name": "Convolution2D"}, {"config": {"name": "block5_pool", "trainable": true, "pool_size": [2, 2], "strides": [2, 2], "border_mode": "valid", "dim_ordering": "tf"}, "class_name": "MaxPooling2D"}, {"config": {"name": "Flatten", "trainable": true}, "class_name": "Flatten"}, {"config": {"bias": true, "output_dim": 1024, "name": "fc1", "trainable": true, "W_regularizer": null, "b_constraint": null, "init": "glorot_uniform", "activation": "elu", "b_regularizer": null, "activity_regularizer": null, "input_dim": null, "W_constraint": null}, "class_name": "Dense"}, {"config": {"name": "fc1_dropout", "trainable": true, "p": 0.5}, "class_name": "Dropout"}, {"config": {"bias": true, "output_dim": 256, "name": "fc2", "trainable": true, "W_regularizer": null, "b_constraint": null, "init": "glorot_uniform", "activation": "elu", "b_regularizer": null, "activity_regularizer": null, "input_dim": null, "W_constraint": null}, "class_name": "Dense"}, {"config": {"name": "fc2_dropout", "trainable": true, "p": 0.5}, "class_name": "Dropout"}, {"config": {"bias": true, "output_dim": 128, "name": "fc3", "trainable": true, "W_regularizer": null, "b_constraint": null, "init": "glorot_uniform", "activation": "elu", "b_regularizer": null, "activity_regularizer": null, "input_dim": null, "W_constraint": null}, "class_name": "Dense"}, {"config": {"name": "fc3_dropout", "trainable": true, "p": 0.5}, "class_name": "Dropout"}, {"config": {"bias": true, "output_dim": 64, "name": "fc4", "trainable": true, "W_regularizer": null, "b_constraint": null, "init": "glorot_uniform", "activation": "elu", "b_regularizer": null, "activity_regularizer": null, "input_dim": null, "W_constraint": null}, "class_name": "Dense"}, {"config": {"name": "fc4_dropout", "trainable": true, "p": 0.5}, "class_name": "Dropout"}, {"config": {"bias": true, "output_dim": 32, "name": "fc5", "trainable": true, "W_regularizer": null, "b_constraint": null, "init": "glorot_uniform", "activation": "elu", "b_regularizer": null, "activity_regularizer": null, "input_dim": null, "W_constraint": null}, "class_name": "Dense"}, {"config": {"name": "fc5_dropout", "trainable": true, "p": 0.5}, "class_name": "Dropout"}, {"config": {"bias": true, "output_dim": 1, "name": "output", "trainable": true, "W_regularizer": null, "b_constraint": null, "init": "zero", "activation": "linear", "b_regularizer": null, "activity_regularizer": null, "input_dim": null, "W_constraint": null}, "class_name": "Dense"}], "keras_version": "1.1.2", "class_name": "Sequential"}